data.pth (torch, 19775 bytes, 6 tensors)

l1.weight f4 [8, 335]
000000 5b 1f 25 be 68 01 ea 3f 22 82 e5 3f 7b 12 e7 3f
       -0.16125242 1.8281679 1.7930338 1.8052515
000010 e5 04 43 3f 56 b6 80 3e ce 42 80 3e 51 9b 99 3f
       0.76179343 0.2513911 0.25050968 1.2000524
000020 63 4c 3f 3f d0 ca c0 3f a5 22 e7 3e 48 bc 96 bf
       0.7472593 1.5061893 0.4514362 -1.1776209
000030 b9 53 c2 3f 88 83 1d 3f 3a 57 ba 3f 0a b3 37 bf
       1.51818 0.61528826 1.455787 -0.71757567
000040 db 7f 4c be bd 91 bd 3f 0a 7f 8d 3f 4b a9 fb 3f
       -0.19970648 1.4810101 1.1054394 1.9661039
000050 4c b5 0d bf f9 89 aa be 92 27 f2 3f 27 31 78 bf
       -0.5535476 -0.3330839 1.8918326 -0.9695
000060 f8 bc 81 3f 6d 67 9d bf 12 89 8d 3e 4b 51 17 40
       1.0135794 -1.2297188 0.2764364 2.3643367
000070 0d fe b2 3e 6c 25 83 bf 83 19 92 3e f0 ac 68 bf
       0.3495945 -1.0245795 0.2853509 -0.9088888
000080 6b ed 30 bf 72 a4 9d bf c7 2d 8d bf b3 2f a8 be
       -0.6911227 -1.231581 -1.1029595 -0.32848892
000090 a5 7b 29 3f 90 4c f8 3f 2f 53 4d 3f 11 4b 86 3f
       0.6620429 1.9398365 0.80205053 1.0491658
0000a0 d1 9e 29 3f 43 c8 22 be 7a ff f9 be 1f e8 6c 3f
       0.6625796 -0.15896706 -0.48827726 0.9254169
0000b0 40 06 23 3f 45 fe 09 40 86 1f 2f 3f 6f d8 a3 bf
       0.6368141 2.1561444 0.68407476 -1.2800425
0000c0 b8 03 2a bd 07 eb 1f 3f 98 47 91 3f 40 85 51 be
       -0.041507453 0.62468 1.1349974 -0.20460987
0000d0 fd 38 aa 3f 4e ee f7 be 1e e4 ec 3f 4a e6 71 3e
       1.3298641 -0.48424 1.8507116 0.23623005
0000e0 23 4a f9 3d 17 f7 09 bf a2 07 68 bf b4 23 1e be
       0.121723436 -0.53892654 -0.90636647 -0.15443307
0000f0 fa 68 95 bf d4 b0 d0 3e 36 aa 4b 3f 77 5f d9 3c
       -1.1672661 0.4075991 0.79556596 0.026534779
000100 92 5f 1f 3f 03 07 c2 3f e4 3d c9 bd 11 eb 07 bf
       0.62255204 1.515839 -0.09826258 -0.5309306
000110 3d 7d b3 3f 05 64 39 3f 4e 66 7e bf ef 7b 5a 3e
       1.4022595 0.7241824 -0.99374855 0.2133634
000120 12 0d c4 3f 16 59 01 3f 95 04 e6 3f 9e 0e 2c 40
       1.5316489 0.5052656 1.7970148 2.6883922
000130 d4 14 05 bf 65 34 90 3f f9 93 ef bf 71 bb b4 3f
       -0.51984906 1.126599 -1.8717033 1.4119703
000140 81 c9 84 3f 07 00 78 bf 68 56 80 3e 67 f0 bd be
       1.0373994 -0.9687504 0.25065923 -0.37097475
000150 52 4f 13 bf 13 13 27 3f 57 cf bc 3f 1b eb b6 3e
       -0.5754291 0.6526348 1.4750775 0.35726246
000160 6c 77 c5 3f b1 9d 25 3f dc bd 49 bf 2f 9a 2d 3f
       1.542707 0.64693743 -0.7880533 0.6781339
000170 f0 f1 dc be 18 7a b5 3f b8 27 cf be 2b 8f 26 40
       -0.43153334 1.4177885 -0.4045999 2.6024883
000180 83 61 2d be 35 d4 80 bf 23 45 2d 3f 6e fd 0f 40
       -0.16931729 -1.006476 0.6768362 2.2498431
000190 5c 3b 21 bf 2f 40 77 3e 20 af c0 3f 71 45 38 3f
       -0.629812 0.24145578 1.5053444 0.7198096
0001a0 fc c4 dc be 51 c4 37 be 3e 94 be bd 51 ad 41 3f
       -0.43119037 -0.17945983 -0.09305619 0.75655085
0001b0 0a cc c6 be 68 ad 98 bf d4 a1 13 bd 53 72 b6 be
       -0.38827544 -1.1927919 -0.036043003 -0.35634097
0001c0 8e e3 88 be 25 9a a3 3f ca 34 f8 bd 37 9b 00 bf
       -0.2673611 1.2781416 -0.12119444 -0.5023684
0001d0 f1 e5 10 bf 94 ed 2d bf 86 99 82 be 12 a4 1a be
       -0.5660086 -0.6794064 -0.25507754 -0.1510165
0001e0 02 41 db bd 5b 93 31 bf ad a2 80 3c 6d 86 89 3f
       -0.10705759 -0.6936547 0.01570257 1.0744148
0001f0 46 6d 1e 3e c8 db 19 40 fa 79 37 3f 99 bd 34 3f
       0.15471372 2.4040394 0.71670496 0.70601803
000200 fc e8 ba 3d 96 ee 35 3e ba 4e 69 3e 39 14 af 3f
       0.091264695 0.17766795 0.22783938 1.3678046
000210 59 d7 cc bc 4f 4d a0 3f 50 1f 43 bf dd 54 56 3e
       -0.02500503 1.2523593 -0.76219654 0.2093081
000220 c2 1d 7a bf 80 52 77 bf c1 13 90 3e 6d b2 4a 3f
       -0.97701657 -0.9661026 0.2814007 0.79178506
000230 5d 9e ce 3e 6c fa d1 3f e6 79 84 3f 67 33 61 3f
       0.40355197 1.6404548 1.03497 0.8796906
000240 d9 5f 07 40 86 0e 2b bf ab c0 01 40 48 ac ab be
       2.115225 -0.66819036 2.0273845 -0.33529878
000250 9b aa 7f 3e 28 6d 64 3e 28 38 b4 3e 6f 96 12 3f
       0.24967425 0.22307265 0.35199094 0.57260793
000260 3a c5 2b bf eb c6 88 3f b1 c3 38 be 20 1f 1c 3f
       -0.6709782 1.0685705 -0.180434 0.60984993
000270 29 29 f6 3f 86 d3 2c bf 1c c0 48 be 92 8d b9 3f
       1.9231311 -0.6751026 -0.19604534 1.4496329
000280 54 7b f5 be 85 c8 05 bf af b1 5d 3a ee 90 7f 3f
       -0.47945654 -0.52259094 0.0008456958 0.9983052
000290 65 62 ea 3f d4 6c 51 3e c6 69 2a 40 ce 52 82 bf
       1.8311278 0.20451671 2.662706 -1.018152
0002a0 ec 4f 52 bf 03 9f 1f bf a9 3c 72 3e 9b 93 1e 3f
       -0.821532 -0.6235201 0.23655953 0.6194398
0002b0 16 63 ed 3f a5 ce a3 be f2 76 9b bf 3c 41 a8 3f
       1.8545864 -0.31993595 -1.2145674 1.3144908
0002c0 fd 27 2d bf 1d ce 9c 3f ed d1 56 3f b9 71 ba 3b
       -0.6763914 1.2250401 0.8391407 0.0056898263
0002d0 75 f4 20 3f 84 6b 1b 3f 8d 31 57 3e 36 57 e4 be
       0.6287301 0.6071093 0.21014996 -0.44597787
0002e0 cb 55 fc 3e f3 17 58 3f 95 26 1d bf 21 18 3e bf
       0.49284205 0.84411544 -0.61386997 -0.7425557
0002f0 25 20 36 3f 8d b7 65 3f 25 95 2e 3e 1f 81 01 bf
       0.711428 0.897332 0.17049082 -0.5058765
000300 47 56 8d 3f c7 99 fd bd d5 6a fc 3e 17 2d 3a 3e
       1.1041955 -0.12382846 0.49300256 0.18181263
000310 b6 ff 8d 3e c9 5d 03 40 54 97 8b be b3 72 fb 3f
       0.27734154 2.0525992 -0.27263892 1.9644378
000320 1b 05 02 3f 67 49 23 bf 60 02 ce bf ba dc 82 3e
       0.5078904 -0.6378388 -1.6094475 0.25559026
000330 f2 f4 80 3f eb 51 09 3f c7 8f e0 bd b1 9f 3a 3f
       1.0074751 0.5364062 -0.10964923 0.7289992
000340 41 a8 81 bf ac 45 75 3e f8 d1 a0 bf a4 a5 53 3f
       -1.0129472 0.23952359 -1.2564077 0.8267462
000350 f3 f9 18 3d b2 66 03 c0 75 23 81 3f 40 eb b6 3f
       0.037347745 -2.053143 1.0088946 1.4290543
000360 ca bf 28 bd 45 ab 0c 40 6d bf 2b 3f a8 2b d9 be
       -0.04119853 2.1979535 0.6708897 -0.4241612
000370 0d a7 30 3f 8a 67 1e 3e 02 7a 8f 3f 56 43 82 3f
       0.690049 0.15469185 1.1209109 1.0176799
000380 c0 48 27 3d 70 c8 96 3e 7b 5a bb be a2 ce 5d 3f
       0.040840864 0.29449797 -0.3659247 0.8664342
000390 20 ec 8d 3f 42 10 c9 3f 03 e8 52 bf ed bc 3d 3e
       1.1087685 1.5708086 -0.8238527 0.185291
0003a0 a8 38 7d 3f 67 82 ef 3d d4 10 34 40 eb eb 64 3e
       0.98914576 0.11694794 2.813527 0.2235562
0003b0 97 a1 53 be 7d 41 af bf fb fb 2e 3f b0 a4 1d bf
       -0.2066711 -1.369186 0.6835324 -0.6157942
0003c0 9b 18 d1 be 57 24 99 bf 88 ad 86 bf c2 97 85 3e
       -0.40839085 -1.1964215 -1.0521708 0.26092345
0003d0 00 18 54 3f 9e c3 5c be d3 dc 33 bf 51 cc 03 be
       0.8284912 -0.21558997 -0.70258826 -0.1287091
0003e0 12 88 f6 bf 7e 7c cd be 92 b7 8b 3f e3 4a 93 3f
       -1.9260275 -0.40134043 1.0915396 1.1507229
0003f0 36 a1 75 3f fb 4c c6 3e bd ba f2 bd 5e 50 db be
       0.95949113 0.38730606 -0.11852024 -0.42834753

l1.bias f4 [8]
000000 9c 8f 76 3f 72 91 04 3f 70 dc 43 3f 24 5a fc 3e
       0.9631288 0.5178443 0.76508236 0.49287522
000010 ca d8 4a 3f 75 c4 70 3f 63 2a 4f 3f c6 43 3c 3f
       0.79237044 0.9404977 0.8092405 0.73540914

l2.weight f4 [8, 8]
000000 85 ba 2d bf bb 00 06 40 c9 14 18 40 c2 67 c7 bf
       -0.6786273 2.0937946 2.3762686 -1.5578539
000010 12 bc 49 bf 34 83 a0 3f 03 4c 83 be 4f 71 71 3f
       -0.788026 1.254004 -0.2564393 0.9431352
000020 50 ef 91 3f 09 eb 9b bf 75 d3 2c bf 8f a2 2a 3d
       1.1401157 -1.2181102 -0.6751016 0.041658934
000030 b2 42 9c 3f 02 3b 40 40 bf 15 0a bf ce 7c 74 be
       1.2207854 3.0036016 -0.5393943 -0.23875734
000040 49 e3 92 3f 14 c8 ec be 93 cd 96 bf 17 be 4b 3f
       1.1475612 -0.46246397 -1.1781486 0.7958693
000050 35 2b 8e bf d5 65 74 3f f9 00 f5 3f 01 b8 a6 3e
       -1.1106936 0.95467883 1.9140922 0.3256226
000060 e1 05 d5 3f c1 a6 a0 bf 14 ac d0 3f b1 39 8c bf
       1.6642419 -1.2550889 1.6302514 -1.0955106
000070 29 14 c7 3e 01 b2 76 bf d7 10 e6 3f 6b 59 e8 be
       0.38882568 -0.9636536 1.7973889 -0.4538072
000080 1b 05 f8 3f 88 c4 26 40 79 b9 41 3e 43 69 24 3f
       1.9376558 2.6057453 0.18918408 0.64223117
000090 27 77 a7 3f 0d 88 78 bf 9c 61 b6 be dd d1 d5 3e
       1.3083237 -0.97082597 -0.35621345 0.41761675
0000a0 b4 2b dd bf 36 84 3a 3f 31 6c b2 3f bf da d7 3f
       -1.7278962 0.7285799 1.3939267 1.6863631
0000b0 23 81 1d c0 6c e9 73 3f e4 40 7b 3f 62 e5 36 bf
       -2.4610069 0.9527805 0.9814589 -0.7144376
0000c0 2a c7 df bf 33 e2 e1 3e ff 8c c3 3f ab 30 34 40
       -1.7482655 0.4411789 1.5277404 2.8154705
0000d0 e8 80 62 40 a0 74 3f 3f f5 89 65 3f 63 70 08 bf
       3.5391178 0.7478733 0.8966363 -0.5329649
0000e0 2b 78 b9 bf de 1d 32 3f e3 d5 00 bf 2e 40 84 3c
       -1.4489797 0.69576824 -0.50326365 0.016143885
0000f0 3a 8a 8d be d3 e4 84 3e 7e 2a a8 3f b4 83 54 40
       -0.2764452 0.2595583 1.3137968 3.3205385

l2.bias f4 [8]
000000 82 66 90 3f 1d c9 45 3f ae 0b 1e 3f 03 b0 3e 3f
       1.1281283 0.7726 0.6173657 0.7448732
000010 5b 7a 3e 3f 80 36 a0 3f 65 e8 2f bf b2 34 ba 3e
       0.7440545 1.2516632 -0.6871398 0.36368328

l3.weight f4 [37, 8]
000000 ac ab f9 bf 38 d2 a0 3f 41 b6 b3 be 48 87 a4 c0
       -1.9505515 1.2564154 -0.35099986 -5.141514
000010 c7 bd d4 3e 9e 5f 43 c0 84 ce b8 3d e3 6b 9c c0
       0.4155104 -3.052711 0.09023765 -4.88817
000020 be d3 3f 3e 49 78 93 be bc 56 ad be 0f 1e e4 3d
       0.18733117 -0.28802708 -0.33855236 0.11138546
000030 38 bd 10 bf 60 9d df 3e 1d bf b1 3e 1f 76 04 c0
       -0.56538725 0.43674755 0.3471612 -2.0697095
000040 d4 bf e8 3e 0a f6 e2 bf 99 f4 46 bf 33 c5 25 be
       0.45458853 -1.7731335 -0.77716976 -0.16188507
000050 d6 f7 f1 bc f2 6b 6f 3f b1 4f 90 3e 8b 51 64 bf
       -0.029537123 0.93524086 0.281858 -0.89186925
000060 65 67 1b 3d bd 8e 72 bf 7a 55 02 c0 a8 c5 3f 3f
       0.0379404 -0.9474905 -2.036467 0.74910975
000070 da 00 ed 3e a7 a1 55 c0 f6 86 05 3e 21 cb 51 bf
       0.46289712 -3.3379915 0.13039765 -0.81950575
000080 aa 12 b0 3e d1 59 b5 3e 44 61 7c bf 67 47 b8 bf
       0.3438924 0.35420087 -0.98585916 -1.439679
000090 a9 17 48 3d 49 45 88 bf a9 08 e8 3d 31 2b 0c 3f
       0.04885069 -1.0646144 0.11329777 0.54753405
0000a0 40 2f 6f be f1 83 18 bf 62 60 a3 3e 9c be ae bf
       -0.23357868 -0.59576327 0.31909472 -1.3651919
0000b0 7d e7 97 bf 14 9a 86 3e 24 e8 89 3e ef 5e 5f 3f
       -1.186752 0.26289427 0.26934922 0.8725423
0000c0 ec 54 9f c0 36 99 64 3f ad fb 04 3f a9 2d fd be
       -4.9791164 0.8929628 0.51946527 -0.49448898
0000d0 0c bb 2e bf 8d 29 31 bf ce 26 2f be cb c5 3e c0
       -0.6825416 -0.69204026 -0.17104647 -2.9808223
0000e0 d1 ef 44 be 45 e6 18 c0 5d 01 af 3e fb 92 ab 3f
       -0.19232108 -2.3890545 0.34180728 1.340423
0000f0 bc 73 f3 3e ed e3 bb c0 8f ac 88 c0 6a 56 fd bf
       0.47549236 -5.871573 -4.2710643 -1.9791996
000100 5a 92 bb bf 53 a7 ca be 01 bc d3 3e 21 97 3d bf
       -1.4654038 -0.39580783 0.41354373 -0.7405873
000110 c0 d2 2c bf 07 52 45 3f c8 a6 15 be b5 38 c5 3e
       -0.6750908 0.7707829 -0.14614403 0.38519827
000120 ec 49 25 3d 23 6a 21 3f 80 a2 8a 3e 72 a6 96 be
       0.0403537 0.63052577 0.27077103 -0.29423863
000130 23 ff 00 3e 3f 32 db 3d 93 36 4e c0 4a ba 91 bf
       0.12597327 0.10702943 -3.222081 -1.1384976
000140 6f 9f 89 3f e5 55 64 c0 28 1a 8d c0 a7 81 b7 3f
       1.075178 -3.5677426 -4.409443 1.4336442
000150 ca a0 27 3f d7 0e 6d c0 bd eb 35 c0 1f ff 39 c0
       0.6547972 -3.7040308 -2.8425133 -2.9061964
000160 bf 35 2e c0 27 dd 7f 3f 9d 6a 84 3f 65 59 7e 3e
       -2.7220304 0.99946827 1.0345036 0.24838789
000170 9f f7 c6 be fc c8 d7 c0 b5 04 73 c0 4e ed 76 be
       -0.38860795 -6.743284 -3.7971623 -0.24113962
000180 a9 30 8b c0 14 42 00 bf 49 af 8b bd 90 58 35 3f
       -4.34969 -0.5010083 -0.06820542 0.7083826
000190 4f fa 41 3f 26 3f 57 c0 3e cb 99 bf ba 4d ad 3d
       0.75772566 -3.3632293 -1.201515 0.08462091
0001a0 e4 3f a6 be 0b fb 9b bf 70 60 c6 3e 8a 37 0f bf
       -0.3247062 -1.2185987 0.3874545 -0.5594412
0001b0 42 71 71 3e 5e a4 c9 3d 01 0b b8 3d 03 f8 f1 3d
       0.2357836 0.09845804 0.08986474 0.118148826
0001c0 6d f0 f2 3e 4c e8 49 bf dc 7f 28 3e 2a 57 e8 3e
       0.47449055 -0.7887008 0.16455024 0.45379
0001d0 aa cd 4a bf ca 12 a4 be f6 e0 b2 bf a8 65 08 3f
       -0.7922007 -0.32045585 -1.3974903 0.53280115
0001e0 c5 45 8f be 80 04 df be a5 39 04 be 2d 27 3a bf
       -0.27982917 -0.4355812 -0.12912615 -0.7271603
0001f0 a9 cb 56 3f 74 d8 4f bf 3e 8c 23 3e ee 12 9b bf
       0.8390451 -0.81189656 0.15971467 -1.2115152
000200 eb b3 c2 bd ae f6 1d c0 0a 3f c8 be 9e f8 62 3f
       -0.09506973 -2.4681811 -0.39110595 0.8866061
000210 9a 01 ed be f5 6d 1a c0 ef 1a 7f 3e c5 17 aa bd
       -0.46290284 -2.4129612 0.24912618 -0.08305315
000220 0d a5 33 3e 07 6b 8a 3e 5a 4e 1a 3c 47 44 21 bd
       0.1754343 0.2703478 0.0094180945 -0.039371755
000230 d0 34 fe bd 3c 87 06 bf 5f 7c 9c be 60 b4 0f be
       -0.12412417 -0.525501 -0.30563638 -0.14033651
000240 53 69 aa bf a5 e5 7e 3e 5c c3 eb bf 19 09 a7 3e
       -1.3313392 0.2489229 -1.8418994 0.32624128
000250 49 c5 91 bd d2 93 8c c0 a7 ea 3c 3f 55 ae 9d c0
       -0.07117707 -4.3930445 0.7379555 -4.927531
000260 b2 31 34 bf 46 3c f4 bd 2a 46 76 c0 69 f8 a7 c0
       -0.7038833 -0.11925559 -3.8480325 -5.2490735
000270 b5 85 07 bf a7 c9 c4 3e 18 bd 9f 3f 60 92 b9 bf
       -0.52938396 0.384351 1.2479582 -1.4497795
000280 c2 72 56 3e d8 5b 0d c0 f4 69 f9 bf 65 a6 13 3e
       0.20942214 -2.2087307 -1.9485459 0.14418943
000290 a4 43 92 3e 21 a3 43 c0 d2 3e 95 3e 8f 99 dd 3e
       0.2856723 -3.0568316 0.2914949 0.43281218
0002a0 3c ef bf bf e6 00 54 c0 2b d9 12 3f d5 87 89 be
       -1.4994884 -3.3125548 0.5736262 -0.26861444
0002b0 b1 85 c4 3f 74 06 b2 be ad a4 0a c0 be d9 b7 c0
       1.5353299 -0.34770548 -2.166301 -5.74533
0002c0 04 92 34 3f af b9 90 bf 88 cb 09 c0 fb 57 2b bf
       0.705353 -1.1306666 -2.1530476 -0.6693112
0002d0 12 7d 0e 3f 52 bf 22 3f 31 42 53 be f5 a6 9c 3e
       0.5565959 0.6357318 -0.20630719 0.30596128
0002e0 9e f7 23 bd d2 a4 21 bf b7 7b 22 c0 0d b4 65 be
       -0.040031068 -0.6314212 -2.538801 -0.22431965
0002f0 25 ab d8 3f f9 8c 7b c0 1f 13 af c0 d6 94 89 bf
       1.6927229 -3.9304793 -5.471084 -1.0748546
000300 f8 68 f5 be 39 99 7d 3d 4d 38 11 3f e7 ac 6c 3f
       -0.47931647 0.061913703 0.56726533 0.9245133
000310 96 e1 66 bf cf f4 8f 3e 18 e0 bc bf 5e fa 82 c0
       -0.90187967 0.28116462 -1.4755888 -4.0930624
000320 6a 84 09 3f 2a 73 da 3e 22 d3 69 be fc 90 a7 3e
       0.5371767 0.42665988 -0.22834447 0.32727802
000330 18 84 a2 bf 25 c4 96 bf 3f c8 91 be 03 a2 6d bd
       -1.2696562 -1.1778609 -0.28473088 -0.058015835
000340 7b b8 5e 3f 93 79 12 3c 3e 18 2a bf 59 fc 8e bf
       0.87000245 0.008940118 -0.6644324 -1.117076
000350 9d 89 8d bf 36 e6 59 3f 6e 84 87 be e5 01 e0 be
       -1.1057621 0.851169 -0.26468223 -0.43751445
000360 a7 6a 27 3f 12 4d af be 76 6c 08 bf 2d 9f 24 3f
       0.65397114 -0.34238487 -0.532905 0.6430538
000370 64 30 a8 3b d2 e3 24 3f ba c4 9d bf 56 97 8a bf
       0.0051327217 0.64410126 -1.2325661 -1.0827434
000380 f2 e4 bf 3f 04 d7 17 bf 24 26 bf bf 2a ea 9c c0
       1.4991744 -0.5931246 -1.4933515 -4.9035845
000390 fe 06 cc 3e 3d f2 a2 be 5a 30 2a c0 3f 88 81 3f
       0.39849085 -0.31825438 -2.6592011 1.0119704
0003a0 0f c9 28 bf 9d bd 42 bf 4b eb b2 3e 0c c3 71 bf
       -0.6593179 -0.76070577 0.3494514 -0.9443824
0003b0 a0 e7 fd 3e 52 f3 27 bf 8d fc 61 bf 38 9c 24 3f
       0.49590778 -0.6560565 -0.88275987 0.6430087
0003c0 6f c9 c6 3e 6d 70 6a 3f ec f4 06 3e a4 63 f0 bf
       0.38825557 0.915778 0.13179368 -1.8780408
0003d0 7d aa 7c bf e0 70 35 bf 71 80 0e c0 06 8e 72 3e
       -0.98697644 -0.7087536 -2.2265894 0.2368699
0003e0 59 2c 8d c0 33 ea 9f 3e 11 99 40 c0 74 56 03 3f
       -4.4116635 0.31233367 -3.0093424 0.5130379
0003f0 95 04 a2 3f aa 22 55 bf 5f 8c 90 bf 9e 16 99 bf
       1.2657648 -0.8325602 -1.1292838 -1.1960027

l3.bias f4 [37]
000000 6d 97 82 bf 31 89 be 3c 5b 8b 9b 3e cb fa 46 be
       -1.0202461 0.023258777 0.30379757 -0.19431607
000010 68 89 86 be 22 12 bb 3e fa ec 00 bf 77 1b 99 be
       -0.26276708 0.36537272 -0.503616 -0.29903767
000020 da 97 d5 bd 25 2b eb 3e f2 7f 03 be cc 64 19 bf
       -0.10429354 0.45931354 -0.12841776 -0.5991943
000030 d8 fc ad bb 42 79 8e be 15 e5 08 bf 45 5a 2a be
       -0.0053096823 -0.27826887 -0.5347455 -0.16635998
000040 9e 9a e0 be 68 8a ab bc f1 44 7d be 27 44 25 3e
       -0.43867964 -0.02094002 -0.2473333 0.1613928
000050 be 89 18 bf 4f f0 72 bb 6a e0 59 3e 23 66 e2 3d
       -0.5958518 -0.0037069505 0.21277013 0.11054637
000060 65 bf 83 3c f1 7c 04 bf 65 43 de 3d 2c ae 3d 3f
       0.016082475 -0.51753145 0.10852698 0.7409389
000070 4c 58 44 3f 13 bd 69 bd 07 6c 2a 3e 37 59 a0 be
       0.7669723 -0.05706508 0.16642772 -0.31318066
000080 c9 b6 16 bf 06 15 d3 bd 8c 01 46 bf de 96 d3 bd
       -0.5887266 -0.10306744 -0.7734611 -0.1033151
000090 1d 7a 8d bf
       -1.1052891
